data.pth (torch, 4479 bytes, 6 tensors)

l1.weight f4 [8, 42]
000000 1e c9 c0 3d b9 7c 30 3e 1f 3a 40 3f 9a a6 91 ba
       0.0941336 0.17235078 0.75088686 -0.0011112273
000010 70 9b 12 be dd bd 61 be 1d b4 0f be 93 1a 1c 3f
       -0.14317107 -0.22045083 -0.14033552 0.6097805
000020 0a 9f d0 3e e3 a9 1e be d4 fa d0 3e a8 f5 03 3f
       0.40746337 -0.15494494 0.40816367 0.51546717
000030 f5 cd c6 be 12 fe b7 be 3b 2b 2c 3f 90 f0 ad 3e
       -0.38829008 -0.35936028 0.67253464 0.33972597
000040 0d 3c b4 3e 2d c7 c9 be 5f 4d 8e bd 0f fe a6 bd
       0.35202065 -0.39409772 -0.06948351 -0.081539266
000050 82 bf 0c 3f 76 6e 3e be 49 89 76 be fb 2d 92 3e
       0.5497972 -0.18596825 -0.24075808 0.28550705
000060 2f d2 ae 3e 06 36 6d bd 41 76 30 3f 44 67 02 bf
       0.34144732 -0.05791285 0.6893044 -0.5093882
000070 0b 96 06 3f 73 83 4b be 5a 58 a6 3e 01 dd bf bc
       0.525727 -0.19874363 0.32489282 -0.023420813
000080 f1 b2 75 3e a5 66 2c 3e 74 41 e4 be 90 5e cc be
       0.23994042 0.16836031 -0.44581187 -0.39915895
000090 30 89 81 3e 4a 82 9a be 3b 8a 5b 3e 44 0a 1c 3f
       0.25299978 -0.30177528 0.2143945 0.60953164
0000a0 38 e5 39 3f 76 f0 20 3e d8 bd 95 3d db 9e 34 3b
       0.72615385 0.15716729 0.073116004 0.0027560506
0000b0 04 82 95 3e cc 81 69 bc 80 c3 75 be 38 13 00 3f
       0.29200757 -0.014252137 -0.24000359 0.50029325
0000c0 24 d8 17 3f 2a 0e 30 3e bc 83 4d 3e 02 bb ce bd
       0.5931418 0.17192903 0.20069784 -0.10094263
0000d0 ee 1f c8 3e 9f e9 74 3e cc 38 8c bd b2 7f 79 bd
       0.3908686 0.23917244 -0.06846771 -0.060912795
0000e0 72 c7 dc 3e 4c 44 5f 3e fc ad 54 3e eb 8f 56 3c
       0.43120915 0.21803397 0.20769495 0.013095836
0000f0 00 8d 09 3f 80 34 e8 3e ba 38 be 3e 7a 6c 66 3f
       0.53730774 0.45352554 0.37152654 0.9000927
000100 b5 af 80 be bf 6e dc 3d 68 5d 51 3e 40 93 17 3f
       -0.25134054 0.10763311 0.20445788 0.5920906
000110 4d ed 09 3f d7 38 ad be a7 6d 9b 3e 68 be 09 3f
       0.5387772 -0.33832428 0.30357096 0.5380616
000120 0b 1b 6a 3e 30 55 f8 3d d1 ec be 3d 60 e4 90 3e
       0.22861879 0.12125623 0.09322513 0.28299236
000130 ef 5b 63 be 8d 3f 9e be 6c 14 49 3d a2 6f 98 be
       -0.22203039 -0.3090786 0.04909174 -0.2977267
000140 63 e4 a4 3d 4a c8 6d 3e 68 cd 94 3e d0 27 47 3e
       0.08051374 0.23220935 0.29062963 0.19448781
000150 b7 5a 8e 3b 2d 32 5b bd 34 29 60 be 73 e5 01 3f
       0.00434431 -0.05351465 -0.21890718 0.50740737
000160 e8 22 ef 3e cb d1 1e bd ef d7 22 be f1 fb 62 3f
       0.4670632 -0.038774293 -0.15902685 0.8866568
000170 ae 71 fd bd cf b2 b8 3e 24 4f eb 3b f8 cb 41 3d
       -0.12375198 0.3607392 0.007181065 0.04731366
000180 d7 6e 70 3e 62 0f 8f 3e 37 8d 4a be 8a f9 83 be
       0.23479782 0.27941424 -0.19780432 -0.2577632
000190 29 ae 26 3f 86 53 b4 3e 58 a8 3d be 7b 8b 79 be
       0.651095 0.35219973 -0.1852125 -0.24369614
0001a0 0f a7 47 be 98 fe ca be 67 e8 09 3f 48 1f f4 be
       -0.19497322 -0.39647365 0.5387024 -0.47680116
0001b0 b8 ad fc 3e e1 cc 33 be f1 e3 f4 bc d4 75 a6 be
       0.49351287 -0.17558624 -0.029893847 -0.3251177
0001c0 6c bd 01 bd e7 8e eb bd b1 ab bd be d3 7d b0 bd
       -0.031674787 -0.11501866 -0.37045053 -0.08617749
0001d0 2f 36 14 be 72 28 19 3f 2f c5 41 3f fd 23 ac 3e
       -0.14473794 0.5982734 0.75691503 0.33621207
0001e0 a1 2b 22 3f b0 f0 1b 3f fe 9e ca bd 7b 6f 45 3f
       0.6334782 0.60914135 -0.098936066 0.7712323
0001f0 08 d4 b7 bd d4 25 90 bd fe a4 8c be cb e3 c6 3e
       -0.089759886 -0.07038465 -0.2746963 0.38845667
000200 44 a5 e5 bd 81 48 d4 bd 9f d0 af be 09 cb 22 3f
       -0.112131625 -0.103653915 -0.34338853 0.6359106
000210 1c 4f f7 3e 01 a9 04 bf 44 97 b0 bd 7f 55 83 be
       0.48302543 -0.5182038 -0.08622602 -0.25651166
000220 40 f3 16 be 6a e4 9b bd b2 6c 16 3f 85 82 24 3f
       -0.1474123 -0.07611926 0.58759606 0.64261657
000230 46 b3 e1 bd 57 1b 12 be 62 8a f8 bc ff 82 3b 3f
       -0.11020522 -0.14268242 -0.030339424 0.7324676
000240 41 4f bd 3e e7 28 0d 3f f3 77 9b be e9 97 18 3f
       0.36974528 0.5514054 -0.30364951 0.59606797
000250 d6 3b 6c be 25 ee 8f be 18 10 30 be 53 14 00 3f
       -0.230697 -0.28111377 -0.1719364 0.5003101
000260 01 ed 73 be a1 e9 21 3f f8 5a 35 bd 9c 68 d7 3e
       -0.23820879 0.63247114 -0.044276208 0.42071998
000270 67 6d 98 bd fd f7 e8 bd 5b 24 6e bd 1e 40 19 be
       -0.07442742 -0.11375425 -0.05814014 -0.14965865
000280 40 eb 65 bc 12 5e b4 be 26 b6 f7 3e 74 4b e3 be
       -0.014033139 -0.3522802 0.48381156 -0.44393504
000290 ca aa ea bc 80 4a 1d bf a2 ab 71 be f5 76 c5 be
       -0.028645892 -0.614418 -0.23600629 -0.3856732
0002a0 97 59 91 bd 79 c2 9c 3e 82 88 9c 3e 9a 75 c1 3e
       -0.07097166 0.3061712 0.30572897 0.37785035
0002b0 18 0c d8 3e 9c 5e 31 3f 5b 06 14 3f b8 2b b3 3e
       0.42196727 0.6928499 0.578222 0.34994292
0002c0 2c 92 c3 3e 2e ec de bd a2 1e 10 3e 53 e7 d4 3d
       0.38197458 -0.108848915 0.14074185 0.10395684
0002d0 aa 68 df be f6 6c df be 2c 85 b0 3e 33 80 14 3f
       -0.4363454 -0.43637818 0.34476602 0.58008116
0002e0 95 c4 81 3e d3 39 0b bf ab 2d dd 3e 5b 1b 08 3f
       0.25345293 -0.5438511 0.43198904 0.5316674
0002f0 38 14 0d 3f a9 dd 21 3f bf bc 18 3f b6 ce 15 3f
       0.55108976 0.6322885 0.59663004 0.5851854
000300 2d a2 05 3e 83 d5 32 3f 6a ff bf 3e 00 d5 f2 be
       0.13050146 0.69857043 0.37499553 -0.4742813
000310 9b d6 a5 3e 3b e3 0c 3f 84 8d ff 3e 16 40 00 3f
       0.32390293 0.55034226 0.49912655 0.5009779
000320 28 12 05 3f 43 57 a7 3d a8 c7 d9 be 92 92 af 3e
       0.5198083 0.08170941 -0.42535138 0.34291512
000330 d8 65 1b 3d 51 80 34 3f 3b 93 c8 3e c1 2a be 3e
       0.037938923 0.70508295 0.39174828 0.37141994
000340 11 af e2 3e 35 e3 2c 3e e7 6c df 3e 3f db 71 3e
       0.4427419 0.16883548 0.43637773 0.23618792
000350 e0 5a cd 3e fd 81 9b bc 72 89 b2 be 93 68 21 3f
       0.40108395 -0.018982882 -0.34870487 0.6305019
000360 6f 0a 40 3f d7 78 38 bf a7 38 81 3e f5 e9 35 3f
       0.7501592 -0.72059387 0.25238535 0.71060115
000370 39 2e b0 3e 70 6a ae 3e b0 09 2e 3f 27 ee 3a 3f
       0.34410265 0.3406558 0.6798353 0.7301964
000380 35 30 b5 3e fc aa 11 be 42 db 8e be ba 40 d9 3e
       0.35388342 -0.14225382 -0.27901655 0.42432195
000390 45 37 0a 3f c6 64 00 3f cc e8 97 3e e1 c1 66 3f
       0.53990585 0.5015377 0.29669797 0.90139586
0003a0 2d c3 78 be 01 dd a6 be da fe 55 be 0c 13 23 3f
       -0.24293204 -0.32590488 -0.20898 0.6370094
0003b0 b1 e4 00 3f eb cf 25 3f 8e 51 2d 3e 61 d7 0f 3f
       0.50348955 0.6477038 0.16925642 0.5618802
0003c0 8b f3 11 3c 18 3a bd bc f3 26 2a 3c 7c 5a 6e be
       0.008908163 -0.02309899 0.010385263 -0.23276705
0003d0 1a 8a 11 3f 54 6a be be 9b fd 1b 3e 97 89 f4 be
       0.5685135 -0.37190497 0.15233462 -0.47761223
0003e0 43 86 97 bd ac 7e 35 bf d7 2d 80 3e 53 39 b4 3e
       -0.07398655 -0.7089641 0.25034973 0.35199985
0003f0 50 e6 f5 3d 6b df 8b 3e ed 4a 0a 3f 29 8c 98 3e
       0.12006819 0.27318892 0.5402058 0.29794434

l1.bias f4 [8]
000000 52 c5 0a 3f b0 91 0c 3f 33 a7 5a 3f 24 18 32 3f
       0.54207337 0.549098 0.85411376 0.69568086
000010 a1 65 df 3e b1 76 38 3f 35 89 4b 3e 17 e7 23 3f
       0.43632224 0.7205611 0.19876559 0.6402449

l2.weight f4 [8, 8]
000000 c4 85 6d 3f 9d 1b d6 bd 49 ee 67 3f b4 b9 12 3f
       0.92782235 -0.104544856 0.9059797 0.5731461
000010 90 a9 39 bf 00 de 07 3e 3e ed 43 be c3 03 d2 be
       -0.72524357 0.1326828 -0.1913347 -0.41018495
000020 f4 00 08 3d e0 07 04 be 42 f5 b1 3b fe 43 22 3e
       0.033204034 -0.12893629 0.0054308483 0.1584625
000030 e0 90 10 3e 8d 13 80 be 6f 17 8d be 1d e6 96 bd
       0.14117765 -0.25014916 -0.2755694 -0.073681094
000040 98 d5 0e bf 4b 4f 58 3f 4b 42 6b 3e 8f 77 98 3f
       -0.5579467 0.8449599 0.22974508 1.1911486
000050 e3 05 df be c8 8b b5 3f e0 28 66 bf 74 b6 52 3d
       -0.4355918 1.4183283 -0.8990612 0.051443532
000060 7f 37 c1 3e 03 22 73 3f 51 4f 89 bf ce b7 e5 3b
       0.37737653 0.9497377 -1.072733 0.0070104366
000070 86 ff 77 3f 95 6f 0f 3f 6c da 03 3f 10 4f 5b 3d
       0.9687427 0.56029636 0.5150516 0.053542197
000080 fb 5b 71 3f be 2a 77 3f 3f ca 04 3f 46 c7 ad be
       0.94280976 0.96549594 0.51871103 -0.33941096
000090 59 2f 27 3f 18 93 23 be 08 92 e3 3d a9 f3 a6 bf
       0.6530662 -0.1597408 0.111118376 -1.3043109
0000a0 70 ea 95 be 20 c1 4d 3c e0 7d 18 bd 00 a0 1a 3a
       -0.29280424 0.012558252 -0.03722942 0.00058984756
0000b0 8c ba ce bd d4 e5 d2 bd 2e f0 74 3e 46 ef 3e be
       -0.10094175 -0.102977425 0.23919746 -0.18645963
0000c0 79 38 c7 be 7e 19 a8 be cd 89 8c 3f 7f 2a 9f be
       -0.38910273 -0.3283195 1.0979553 -0.3108711
0000d0 4c 22 7d 3f 7f 4d 7c bf d3 61 2a 3f 19 d1 7a 3f
       0.9888046 -0.9855575 0.6655552 0.9797531
0000e0 ed eb 49 3f eb fd f3 3e b8 2e 21 bf 7e 88 84 bf
       0.7887562 0.47654662 -0.6296191 -1.0354154
0000f0 d6 11 39 3f a6 b7 22 3d be 35 39 3f 62 f2 23 3f
       0.7229284 0.039725922 0.7234763 0.6404172

l2.bias f4 [8]
000000 75 bb a6 3e c4 48 09 be 2b c3 3e 3f 62 33 32 be
       0.32564893 -0.13406664 0.7451655 -0.17402413
000010 1f 7a a1 3e 2e 97 b2 be b3 ce 27 3f 27 82 32 bd
       0.31538484 -0.34880966 0.6554977 -0.043581154

l3.weight f4 [6, 8]
000000 88 c0 12 3f 01 fc 82 3e 3d 41 9c be e1 1f 62 bf
       0.5732503 0.2558289 -0.30518523 -0.88329893
000010 e9 80 62 3f 16 bf 16 3e bc c9 3d 3c af ef f9 be
       0.8847795 0.14721331 0.011583742 -0.48815677
000020 3b 96 2f 3f a9 a5 b0 bd 7c 77 7a 3f 1e cb 34 bf
       0.6858861 -0.08625347 0.9783857 -0.7062243
000030 d5 9c 87 bf 15 33 a6 3e 98 43 02 bf 71 be 48 bf
       -1.0594736 0.32460847 -0.5088439 -0.7841559
000040 f5 ee ab bf 4d 91 04 3e f6 2c 13 3f fb 07 f3 3e
       -1.3432299 0.12946053 0.5749048 0.47467026
000050 d3 6b f8 3d 20 62 dd 3d 59 ea 63 bf 63 eb 9f be
       0.12129941 0.108097315 -0.8902946 -0.31234273
000060 f8 73 49 bf c4 ac 84 be b4 73 6f bf 66 c7 10 3f
       -0.7869258 -0.2591306 -0.93535924 0.5655426
000070 8e cb 57 bf 8c 5e 88 bd 26 af fc bd ae 82 29 3f
       -0.84294975 -0.066586584 -0.123380944 0.66215026
000080 3b d1 07 bf b1 55 8c be 9a 2b 5b be be 16 a4 3e
       -0.53053635 -0.27409127 -0.21403351 0.320486
000090 cb 2a fc 3e 12 a8 25 3e dd 8b a1 bf ed 21 0a 3f
       0.49251398 0.16177395 -1.2620808 0.53958017
0000a0 c3 09 95 bf e3 de b7 be 09 10 1f bf 59 9b 92 bf
       -1.1643604 -0.35912237 -0.6213384 -1.1453658
0000b0 e5 c2 76 bf 2a 78 2d 3e 53 84 78 3f 2c a1 58 3e
       -0.96391135 0.1694037 0.9707691 0.21155232

l3.bias f4 [6]
000000 34 7a bb 3d 1c 59 1b 3f 0e af ce be 51 c2 b9 bd
       0.09154168 0.60682845 -0.4036793 -0.09070266
000010 da 5d e4 be ac 29 94 3c
       -0.44602853 0.018086277
